misc/NNCF_model_save_1k.pth (torch_old, 268026 bytes, 9 tensors)

dense1.weight f4 [32, 999]
-0.0009056573 -0.009829678 0.0007814616 0.007374036 -0.01943199 0.008948359 0.019816007 -0.007941827
-0.021868072 0.004952595 -0.012726817 0.01862387 0.030504476 -0.03158063 -0.02447562 0.030897668
-0.008702149 0.0196143 0.02858931 0.026773574 -0.008568666 0.019478844 -0.0022702941 0.01511088
-0.026245477 0.010167701 -0.017024554 -0.013871253 0.02191413 0.0052291905 -0.00962091 -0.012795154
0.02348037 0.027944438 0.023767784 0.014484052 0.00636767 0.014439439 0.00493753 0.030885728
-0.022314768 -0.004804834 -0.014541963 -0.02162503 -0.019655481 0.009172253 0.009702362 0.012178319
-0.022477252 -3.2516065e-05 -0.029004972 0.022763928 -0.029015657 0.016013626 0.029087713 0.023724763
0.011979165 -0.029606583 0.023356315 -0.029281385 -0.017429885 0.009616053 0.00095258706 -0.012746332
0.027962543 -0.007852816 -0.004238766 -0.0038634222 -0.013812903 0.021387506 -0.02333549 0.022686485
-0.023460887 0.0106916055 1.6183498e-05 -0.02928314 -0.018473163 -0.0062364684 0.011196268 0.0074882293
0.0012090658 0.021151781 -0.02573133 0.019871276 0.027427968 -0.020251743 0.028049149 0.031062283
0.03159948 0.008374162 0.008459099 -0.02115466 0.028887266 -0.00924469 0.009340484 0.030991357
-0.0024629077 -0.003335344 0.00980553 -0.01682147 -0.02227446 -0.027558558 0.01222219 -0.017951662
-0.0077541177 -0.024505718 -0.006148211 0.025252815 0.01690115 -0.018968392 0.0027622439 0.005834331
-0.024911804 -0.013689276 -0.031164406 -0.00025261735 0.012453432 0.0022321292 0.019616883 -0.02279809
-0.028026197 -0.0067811324 0.019099794 0.02692988 -0.008899211 0.021879708 -0.0033469023 -0.00433625
0.02531243 -0.0028021857 0.011241849 0.029223222 -0.014059076 -0.02078671 0.031418387 0.005929367
-0.021345485 -0.013633404 0.02120928 0.031462234 0.018647363 -0.028739454 -0.019813059 -0.009955917
0.017702963 0.008991762 0.02947891 0.021051057 0.009847822 -0.02249602 -0.018840544 -0.009253448
0.0070437193 0.017689195 -0.00034782014 -0.014862318 0.006379504 -0.0046156948 -0.02057942 0.014920421
0.014928332 -0.021426525 0.015575828 3.5489138e-05 0.028274847 -0.01022242 -0.012114719 -0.0127296075
-0.023967452 -0.018225126 -0.012386847 -0.031244546 -0.018150784 0.021314496 -0.0026101535 0.02626808
0.0129544325 0.011022062 0.024798548 3.3504937e-05 -0.0053297253 0.030433062 -0.011349646 -0.01938839
0.0031211923 -0.023641102 -0.0037895965 0.022186274 0.021721061 0.016796572 0.020087799 0.02066395
-0.004704093 0.016517926 0.0035446752 0.011447459 0.025964528 -0.022204109 -0.027243251 -0.018549062
0.015091968 -0.0010024433 -0.0034607353 0.019339459 -0.028256057 0.024290834 0.026189983 0.006771475
0.0186182 0.019545818 0.022934629 0.028496271 0.02254453 -0.015774388 0.030473221 0.009361838
-0.00426261 -0.017276622 -0.03145376 -0.01704156 0.026493367 0.02135284 -0.016680155 -0.02437284
-0.02680035 -0.018328108 0.018735837 0.0037281516 0.0042996253 -0.027035654 -0.0037558717 0.024253145
0.011809222 -0.021607272 0.03153477 0.00021596432 -0.005567957 -0.026320204 -0.007613957 -0.020441478
-0.024307441 -0.00097627746 0.014241871 0.027220638 0.030190112 0.020671964 0.027263282 -0.014298646
0.01453059 -0.015790565 0.022608928 0.013739482 0.010918613 0.0064714416 -0.022614619 0.008399784
00000000: a269 6dba a80c 21bc 00db 4c3a e6a1 f13b
00000010: d62f 9fbc 239c 123c 2e55 a23c 701e 02bc
00000020: ac24 b3bc 6149 a23b 2484 50bc 1691 983c
00000030: 86e4 f93c b15a 01bd 1881 c8bc 1b1d fd3c
00000040: 7593 0ebc 2bae a03c 2134 ea3c 4154 db3c
00000050: 9763 0cbc 1992 9f3c 37c9 14bb a093 773c
00000060: c100 d7bc 6e96 263c 1477 8bbc 4044 63bc
00000070: 4385 b33c a159 ab3b 05a1 1dbc c4a2 51bc
00000080: e859 c03c bceb e43c a8b4 c23c 844e 6d3c
00000090: e3a7 d03b 6693 6c3c 01cb a13b 1104 fd3c
000000a0: 76cd b6bc de71 9dbb 6a41 6ebc fa26 b1bc
000000b0: 8804 a1bc 3847 163c a8f6 1e3c 9287 473c
000000c0: 3722 b8bc dc61 08b8 d69b edbc 6b7b ba3c
000000d0: 3eb2 edbc 022f 833c 5b49 ee3c 6f5a c23c
000000e0: 4244 443c 8189 f2bc be55 bf3c 84df efbc
000000f0: 1ec9 8ebc a68c 1d3c 09b7 793a fed5 50bc
00000100: b411 e53c 19a9 00bc 59e5 8abb 7831 7dbb
00000110: 844f 62bc da34 af3c 122a bfbc 02d9 b93c
00000120: 0c31 c0bc d82b 2f3c ccc1 8737 32e3 efbc
00000130: 0855 97bc 4a5b ccbb 8d70 373c d25f f53b
00000140: 8479 9e3a 8046 ad3c 83ca d2bc 16c9 a23c
00000150: 9eb0 e03c fce6 a5bc 54c7 e53c 5476 fe3c
00000160: 756e 013d c833 093c 0898 0a3c 8a4c adbc
00000170: fda4 ec3c 0a77 17bc d408 193c 96e1 fd3c
00000180: bc68 21bb c995 5abb 60a7 203c 2ecd 89bc
00000190: ee78 b6bc 7cc2 e1bc 953f 483c 5d0f 93bc
000001a0: 4116 febb 37c0 c8bc ef76 c9bb fede ce3c
000001b0: 4874 8a3c 9a63 9bbc c306 353b ea2d bf3b
000001c0: d713 ccbc fc48 60bc 7f4c ffbc ba71 84b9
000001d0: 7b09 4c3c ea48 123b 96b3 a03c 0fc3 babc
000001e0: 3297 e5bc 4334 debb 2c77 9c3c 0d9c dc3c
000001f0: ffcd 11bc 133d b33c b457 5bbb 1a17 8ebb
00000200: 035c cf3c e0a4 37bb bb2f 383c 8a65 ef3c
00000210: 0a58 66bc e448 aabc 91b0 003d 234b c23b
00000220: badc aebc a45e 5fbc 15bf ad3c 8bde 003d
00000230: 5bc2 983c 016f ebbc ff4e a2bc 241e 23bc
00000240: ce05 913c 2f52 133c c17d f13c 4473 ac3c
00000250: c258 213c 9349 b8bc 7c57 9abc c69b 17bc
00000260: 00cf e63b eee8 903c a15b b6b9 1481 73bc
00000270: 290b d13b 413f 97bb 2c96 a8bc c874 743c
00000280: f695 743c ae86 afbc c231 7f3c 2cda 1438
00000290: a7a0 e73c f07b 27bc d07c 46bc d88f 50bc
000002a0: 6457 c4bc dc4c 95bc 34f2 4abc 90f4 ffbc
000002b0: f4b0 94bc bd9b ae3c 1c0f 2bbb 2830 d73c
000002c0: d43e 543c e195 343c 5326 cb3c a787 0c38
000002d0: faa4 aebb c24e f93c def3 39bc 67d4 9ebc
000002e0: eb8c 4c3b fcaa c1bc e15a 78bb fdbf b53c
000002f0: 5ef0 b13c f798 893c 2b8f a43c 7247 a93c
00000300: cb24 9abb 9a50 873c c84d 683b 208e 3b3c
00000310: 90b3 d43c 64e5 b5bc 3d2d dfbc 34f4 97bc
00000320: 4d44 773c 6a64 83ba 81cd 62bb c96d 9e3c
00000330: 3f79 e7bc 92fd c63c 608c d63c 40e3 dd3b
00000340: 3285 983c 8d1e a03c 67e1 bb3c 0371 e93c
00000350: 4eaf b83c 4a39 81bc faa2 f93c 6562 193c
00000360: 5dad 8bbb b487 8dbc a8d5 00bd be9a 8bbc
00000370: 9e08 d93c 27ec ae3c d2a4 88bc 8da9 c7bc
00000380: 688c dbbc d424 96bc e67b 993c 0154 743b
00000390: dfe3 8c3b e079 ddbc 1225 76bb 88ae c63c
000003a0: 787b 413c bc01 b1bc 9a2a 013d 7b74 6239
000003b0: 6973 b6bb 789d d7bc 807e f9bb e374 a7bc
000003c0: 6620 c7bc dfec 7fba bd56 693c d1fd de3c
000003d0: 4151 f73c 4058 a93c 3f57 df3c de44 6abc
000003e0: b611 6e3c 375b 81bc 5c36 b93c 901b 613c
000003f0: fbe3 323c 630e d43b 4b42 b9bc 3f9f 093c

dense1.bias f4 [32]
0.010838352 0.013462773 -0.015084815 -0.00063752255 -0.026603214 0.003685829 0.008340037 0.017303169
-0.023162793 -0.018810052 -0.009250691 -0.015080257 -0.015761564 -0.029557664 -0.0029969516 -0.005117187
0.025839409 0.023014959 0.023594452 0.004715524 0.0204439 0.0061651883 0.010786409 0.02588159
0.00035658025 -0.0005747919 -0.024305735 0.022826761 -0.0013206835 -0.027150119 0.0319463 0.009918754
00000000: 5893 313c f692 5c3c 4d26 77bc 6a1f 27ba
00000010: fcee d9bc f38d 713b a7a4 083c 60bf 8d3c
00000020: e6bf bdbc 8a17 9abc 3690 17bc 2f13 77bc
00000030: 651e 81bc ea22 f2bc 8168 44bb 13ae a7bb
00000040: 2bad d33c de89 bc3c 2749 c13c af84 9a3b
00000050: f779 a73c 5905 ca3b 7ab9 303c a105 d43c
00000060: 64f3 ba39 a2ad 16ba d21c c7bc 30ff ba3c
00000070: c91a adba ed69 debc 20da 023d 4582 223c

dense2.weight f4 [32, 999]
-0.011575434 0.026568353 -0.022743378 -0.03129304 0.020876411 0.017854506 -0.025259841 0.025399715
-0.010439547 -0.018695276 -0.008757142 0.0031740186 0.0038275495 0.030039638 -0.027168682 0.024842756
0.01218404 -0.029806862 -0.013822332 -0.011680089 0.0021209072 0.027697975 -0.031144308 0.027595572
0.027633376 0.019456904 -0.01828657 -0.0161106 0.006121126 -0.01597075 0.0141940005 0.017352156
0.0052130036 -0.023396928 -0.0061046146 0.022008404 0.002800314 -0.00024271011 -0.028461736 -0.010091387
0.0060456544 -0.028405681 -0.029324895 -0.00029892847 0.0016783824 0.008339992 -0.018640976 -0.0068900324
-0.006021373 -1.1511147e-06 0.007702043 0.0046162526 0.013174351 -0.011835596 0.020247579 0.016410803
-0.02389684 -0.025653936 -0.019979332 -0.03023003 -0.029244551 0.020589484 -0.02906634 0.0045870175
-0.02900785 0.0006987115 0.01031953 0.01635631 0.030086618 0.012088402 0.015224018 -0.0035544187
-0.020445092 0.025683582 -0.0024705548 0.0071174796 0.020336475 0.003542644 0.028573666 0.012299067
-0.027897203 -0.0078591965 -0.006936012 0.0034163364 0.026529012 -0.029456547 -0.030761778 0.0016938424
-0.0026889201 -0.02923667 0.014121005 -0.016122421 -0.0005771369 -0.022983648 0.030748378 -0.010860743
-0.012966314 0.024647154 0.016592626 -0.010311056 -0.030987423 0.0021862013 -0.016321972 0.0044261767
-0.031512596 -0.0038775485 -0.011840835 0.030467601 -0.0163268 0.031246265 0.025753548 -0.0027908813
0.020905102 0.022939378 -0.003927024 -0.013312383 0.017143205 0.012517151 0.009944671 0.029453801
0.03082735 0.0023674762 0.029138537 0.018547408 0.016312432 -0.0005611032 -0.029036585 -0.025012735
0.03071293 -0.022611693 0.027904157 0.025556024 -0.020914987 -0.031588405 0.0072568716 -0.020510012
0.008133847 0.023793073 -0.00013489276 -0.0015482176 0.009509121 -0.01919293 -0.011677323 -0.013604434
0.019371137 0.016905725 0.008127121 -0.019600589 -0.022711704 0.018544052 0.026963793 -0.029397676
0.030440496 0.019312307 0.021814931 0.017846838 0.0042112274 0.02531364 -0.012158103 -0.021513179
0.005368857 0.023067128 -0.03051057 -0.0183349 -0.00021188706 -0.030188067 -0.021953676 0.024023637
0.00576652 -0.010901578 -0.0086627845 0.015924728 -0.016604679 -0.020577366 -0.003825236 0.02545807
0.00012186915 0.01523728 0.016640384 0.010467777 -0.00499868 0.007988344 -0.0048442427 -0.001503
0.0059291194 0.016286394 -0.013742132 -0.013672203 -0.007983642 -0.02328512 -0.011338109 -0.007259423
0.0060680546 -0.025806356 0.027873484 0.01078446 0.0082040895 0.023370193 0.004249826 -0.031063752
0.029118573 -0.030375723 0.0005669261 0.031533044 -0.0075042695 -0.026592206 -0.031516816 0.02522137
0.005814327 0.022588074 -0.021968033 -0.025342714 0.008147078 -0.020282883 0.013496946 0.015159132
0.02249409 0.022301277 0.003845808 -0.015047144 -0.014183762 -0.02409262 -0.011441097 0.012315406
0.0039118323 0.009272149 -0.009745786 0.02088218 0.0121787 0.03088082 0.021926166 -0.015666353
0.025300674 0.020308135 0.01883209 -0.0035451632 -0.025460623 0.00022588416 -0.031438574 0.023516461
0.022732938 0.0066378433 0.020870212 -0.012850568 0.023752488 0.007863081 -0.003648335 0.02736614
-0.0064267907 0.024708996 -0.013804488 -0.0057442114 0.024329247 -0.01704225 -0.021488331 -0.028817462
00000000: e4a6 3dbc e0a5 d93c 5250 babc 212d 00bd
00000010: 0205 ab3c 9d43 923c baed cebc 1013 d03c
00000020: a20a 2bbc d626 99bc 1e7a 0fbc 3203 503b
00000030: a0d7 7a3b b015 f63c db90 debc 0983 cb3c
00000040: 919f 473c 852d f4bc 1077 62bc d85d 3fbc
00000050: ebfe 0a3b dde6 e23c 5922 ffbc 1c10 e23c
00000060: 645f e23c 1664 9f3c b8cd 95bc 61fa 83bc
00000070: ba93 c83b 17d5 82bc f48d 683c 1c26 8e3c
00000080: d8d1 aa3b eaaa bfbc 3809 c8bb f84a b43c
00000090: 7985 373b 0080 7eb9 9628 e9bc 5856 25bc
000000a0: a01a c63b 08b3 e8bc c33a f0bc 80b9 9cb9
000000b0: 2bfd db3a 76a4 083c f6b4 98bc c8c5 e1bb
000000c0: f04e c5bb 0080 9ab5 6b61 fc3b ef43 973b
000000d0: 3cd9 573c 16ea 41bc 40de a53c f36f 863c
000000e0: 4ec3 c3bc 3428 d2bc b2ab a3bc f8a4 f7bc
000000f0: 4592 efbc 47ab a83c 881c eebc b14e 963b
00000100: dfa1 edbc bc29 373a 3f13 293c abfd 853c
00000110: 3678 f63c 6f0e 463c 296e 793c 40f1 68bb
00000120: 777c a7bc 6066 d23c 08e9 21bb bf39 e93b
00000130: ae98 a63c b42b 683b 5213 ea3c 0782 493c
00000140: ad88 e4bc dcc3 00bc 7c47 e3bb 9de4 5f3b
00000150: 5f53 d93c db4e f1bc 2000 fcbc eb03 de3a
00000160: 9838 30bb be81 efbc ca5b 673c 2b13 84bc
00000170: 004b 17ba 3448 bcbc 06e4 fb3c 42f1 31bc
00000180: aa70 54bc d4e8 c93c 42ed 873c b4ef 28bc
00000190: 56d9 fdbc 5f46 0f3b a8b5 85bc 7609 913b
000001a0: 5a13 01bd 781e 7ebb 1000 42bc 3197 f93c
000001b0: c8bf 85bc 2bf8 ff3c 1bf9 d23c 38e7 36bb
000001c0: 2d41 ab3c 5deb bb3c 44ae 80bb 2e1c 5abc
000001d0: e86f 8c3c bd14 4d3c f9ee 223c 1949 f13c
000001e0: a489 fc3c a927 1b3b f1b3 ee3c bcf0 973c
000001f0: a6a1 853c 0017 13ba 22de edbc 82e7 ccbc
00000200: af99 fb3c 283c b9bc 4297 e43c de5a d13c
00000210: e855 abbc d862 01bd 0dcb ed3b 9d04 a8bc
00000220: d443 053c b1e9 c23c 0072 0db9 90ed caba
00000230: 25cc 1b3c 7e3a 9dbc 3e52 3fbc 22e5 5ebc
00000240: 38b0 9e3c e07d 8a3c 9e27 053c 6a91 a0bc
00000250: e50d babc b2e9 973c 2ce3 dc3c 65d3 f0bc
00000260: 595e f93c d834 9e3c 3ab5 b23c 8833 923c
00000270: 56fe 893b 8d5e cf3c c832 47bc 683c b0bc
00000280: 3ded af3b 46f7 bc3c 4ef1 f9bc 1233 96bc
00000290: 002e 5eb9 f74c f7bc 32d8 b3bc 38cd c43c
000002a0: 13f5 bc3b 889c 32bc 5aee 0dbc 9374 823c
000002b0: 8906 88bc dd91 a8bc d0b0 7abb 718d d03c
000002c0: 0094 ff38 c9a5 793c 6a51 883c 0a81 2b3c
000002d0: f8cb a3bb 8be1 023c 74bc 9ebb 5000 c5ba
000002e0: 0f49 c23b 0b6b 853c ae26 61bc 6001 60bc
000002f0: d2cd 02bc 70c0 bebc 7ac3 39bc 74e0 edbb
00000300: 88d6 c63b da67 d3bc ef56 e43c 4eb1 303c
00000310: 726a 063c d972 bf3c 2042 8b3b 6979 febc
00000320: 138a ee3c 82d6 f8bc c49d 143a cb28 013d
00000330: 60e6 f5bb e6d7 d9bc c717 01bd 0c9d ce3c
00000340: 1c86 be3b a00a b93c 4ef6 b3bc 869b cfbc
00000350: 527b 053c 4a28 a6bc 4b22 5d3c 025e 783c
00000360: 8745 b83c 2bb1 b63c f409 7c3b 4c88 76bc
00000370: 0263 68bc e35d c5bc 7073 3bbc 8fc6 493c
00000380: d42e 803b 36ea 173c caac 1fbc 1b11 ab3c
00000390: 2c89 473c c6f9 fc3c 819e b33c b956 80bc
000003a0: 5c43 cf3c 3f5d a63c c145 9a3c f855 68bb
000003b0: cc92 d0bc 51db 6c39 bcc5 00bd 98a5 c03c
000003c0: 6d3a ba3c 4482 d93b 02f8 aa3c 308b 52bc
000003d0: 9494 c23c 27d4 003c e818 6fbb f52e e03c
000003e0: d497 d2bb 856a ca3c 382c 62bc f039 bcbb
000003f0: 214e c73c 309c 8bbc 4c08 b0bc 9912 ecbc

dense2.bias f4 [32]
-0.00021590303 0.0020329978 -0.011824372 0.016819157 -0.019312434 -0.024351792 0.031179214 0.020517925
0.021279065 0.0008532055 -0.0041083363 -0.019027753 0.0111237215 -0.004200026 -0.007828048 0.020284293
-0.015249984 0.02692482 0.0015306842 0.015685502 0.007958632 0.0032440186 -0.013509489 -0.0020131636
0.020732015 0.013748806 0.022386095 0.013367725 0.018139208 0.01619572 -0.01582188 0.012029291
00000000: 0764 62b9 0b3c 053b 03bb 41bc 54c8 893c
00000010: 1c35 9ebc 697d c7bc 8d6b ff3c 3515 a83c
00000020: 6f51 ae3c a7a9 5f3a 399f 86bb 17e0 9bbc
00000030: 4540 363c 5fa0 89bb 3741 00bc 3f2b a63c
00000040: 12db 79bc 7191 dc3c 3da1 c83a e27e 803c
00000050: ec64 023c 9a99 543b e756 5dbc 48ef 03bb
00000060: 30d6 a93c ac42 613c 0b63 b73c 4d04 5b3c
00000070: ad98 943c e3ac 843c e39c 81bc 8116 453c

fc1.weight f4 [32, 64]
-0.05216244 0.10625996 0.07853368 -0.04735352 -0.05582188 -0.00054460764 -0.11574024 -0.08412078
-0.045546293 -0.040016472 -0.06599982 -0.06933023 0.051808402 -0.0013529956 0.11931527 -0.12032002
0.109583184 -0.026261121 0.09254184 -0.0063504577 -0.062479436 -0.08605389 0.022340685 -0.0696902
-0.03424345 0.05935344 0.10440244 0.11349836 -0.044203997 0.06427619 -0.11540213 -0.037028044
0.05224836 -0.12485835 0.117960036 -0.08726856 0.0993122 0.024117231 0.103013426 -0.051293463
-0.052897617 0.09623127 -0.03172171 0.06646861 -0.03649646 -0.020700976 0.04613729 -0.055643618
-0.11359784 -0.0007159114 -0.03582108 0.052327216 0.09916468 0.05981566 -0.022164568 0.07358219
0.1234027 -0.09359963 -0.017748967 0.10198267 0.06332432 -0.11923918 0.120110914 -0.011600658
-0.10802319 0.006363632 0.0857999 -0.0020107366 -0.0019463599 0.048440553 -0.0645154 -0.070374474
-0.084083274 -0.1068041 0.021440148 -0.0031947233 -0.031348184 -0.0031050593 0.022801548 0.040459067
0.0069352305 -0.045303028 0.021799585 -0.08757463 0.118457764 0.04903543 -0.025817275 -0.013420453
-0.102154545 -0.07317183 0.08335017 -0.11180006 0.10288744 0.08269569 0.048320327 0.027267631
-0.002100145 0.086574554 0.072448134 0.07352722 -0.09646501 -0.10679072 -0.07387633 0.1070643
0.1086512 -0.06789092 0.025578951 -0.10559965 -0.1117138 -0.035581615 -0.03711148 -0.098430455
-0.024543375 -0.012697121 -0.06716305 0.09925548 -0.0005404795 0.11482453 0.103947565 0.016124874
-0.039890785 0.061197437 0.05808691 -0.03675173 -0.10929646 0.056583393 0.023500293 -0.071836606
-0.033476427 9.7798285e-05 0.12409546 -0.052899387 0.0122086415 -0.057627626 -0.06675154 0.016690962
-0.01717008 0.0002226548 0.06329242 -0.0017588651 0.08131327 -0.10700327 0.09309424 -0.04077514
0.106556855 -0.10040033 0.11853754 -0.0044872547 0.09786401 0.018137977 -0.11534497 -0.068202846
-0.06942231 0.1024373 0.09002852 -0.0104049435 0.109547704 -0.0035884841 0.017763887 0.1153711
-0.09953483 0.10252078 0.0136402985 0.12313351 -0.032367088 0.05524757 0.04041868 0.095061
-0.038865957 0.11838096 -0.06902396 -0.08161363 -0.09394038 0.05830845 0.058405045 0.064037144
0.01064034 -0.013144126 -0.06874558 -0.04702647 0.075637035 -0.03613038 -0.043505576 -0.014175002
-0.017361702 -0.05888178 -0.056850065 0.038109627 0.05018972 0.015067454 -0.041625604 0.050688576
-0.067799866 0.0061246157 -0.07245448 0.10600744 0.00762102 0.004568875 -0.06258188 -0.08462484
0.114632085 -0.037169814 0.012292847 0.025537655 -0.036604017 -0.08475734 -0.0664275 0.10489702
0.013512775 -0.006370932 -0.07564655 -0.04292655 -0.016318634 0.058748186 -0.103351355 0.080656245
0.098587334 -0.03472179 -0.043899402 -0.026879266 -0.10012485 0.0396266 -0.10720247 -0.053887308
0.071437 0.11282262 0.0255194 -0.059674606 0.00657022 0.04450603 0.10846023 -0.038719684
-0.08480954 0.007652551 -0.07560246 0.014453024 -0.06646131 -0.120802745 0.084625676 -0.049908757
-0.066741556 -0.09397212 -0.044934824 0.054819092 0.09450349 -0.1086283 -0.10602704 0.1138445
-0.09018852 -0.10050447 0.061215088 -0.072229266 0.07017015 -0.011239558 0.0124764 -0.033076167
00000000: 48a8 55bd d29e d93d 44d6 a03d c4f5 41bd
00000010: 7ca5 64bd 00c4 0eba 3809 edbd 8447 acbd
00000020: c08e 3abd 50e8 23bd ea2a 87bd 02fd 8dbd
00000030: 0c35 543d 0057 b1ba 905b f43d 586a f6bd
00000040: 266d e03d 9021 d7bc 9486 bd3d 8017 d0bb
00000050: 70ea 7fbd 063d b0bd d003 b73c bcb9 8ebd
00000060: dc42 0cbd 981c 733d f2d0 d53d d471 e83d
00000070: 400f 35bd 3ca3 833d f457 ecbd b8aa 17bd
00000080: 6002 563d bcb5 ffbd 0895 f13d dcb9 b2bd
00000090: 3264 cb3d 8091 c53c b4f8 d23d 1819 52bd
000000a0: 2cab 58bd e614 c53d a0ee 01bd b220 883d
000000b0: 507d 15bd 1895 a9bc 74fa 3c3d 90ea 63bd
000000c0: fca5 e8bd 00ac 3bba 20b9 12bd 1055 563d
000000d0: da16 cb3d 4401 753d 7892 b5bc 42b2 963d
000000e0: 8eba fc3d 2ab1 bfbd 4866 91bc 4adc d03d
000000f0: 2eb0 813d ac33 f4bd b6fc f53d b010 3ebc
00000100: 433b ddbd 0486 d03b dcb7 af3d 90c6 03bb
00000110: 001d ffba 9a69 463d a620 84bd 7e20 90bd
00000120: da33 acbd 1cbc dabd 40a3 af3c 905e 51bb
00000130: f466 00bd 407e 4bbb 50ca ba3c 68b8 253d
00000140: ee40 e33b ab8f 39bd 0b95 b23c 545a b3bd
00000150: fc99 f23d 60d9 483d c07e d3bc 76e1 5bbc
00000160: 6736 d1bd 1ddb 95bd 7eb3 aa3d 6ef7 e4bd
00000170: a6b6 d23d 5c5c a93d 89eb 453d 5e60 df3c
00000180: 96a2 09bb 004e b13d b05f 943d 7095 963d
00000190: 728f c5bd 18b5 dabd 794c 97bd 8744 db3d
000001a0: 8584 de3d 650a 8bbd f38a d13c a144 d8bd
000001b0: 34ca e4bd 07be 11bd 3502 18bd e895 c9bd
000001c0: 300f c9bc 9607 50bc c88c 89bd 7546 cb3d
000001d0: f7ae 0dba 2029 eb3d 76e2 d43d 5018 843c
000001e0: 8564 23bd 2aaa 7a3d 8aec 6d3d fb88 16bd
000001f0: d3d6 dfbd fdc3 673d b083 c03c 121f 93bd
00000200: 941e 09bd 0e19 cd38 c325 fe3d 07ad 58bd
00000210: c106 483c f20a 6cbd 08b5 88bd 7cbb 883c
00000220: 45a8 8cbc 7178 6939 759f 813d b889 e6ba
00000230: 9287 a63d 8824 dbbd 31a8 be3d d503 27bd
00000240: 7b3a da3d b09e cdbd cfc3 f23d d209 93bb
00000250: ed6c c83d 1896 943c fc39 ecbd efad 8bbd
00000260: 492d 8ebd a6ca d13d df60 b83d 7f79 2abc
00000270: 8c5a e03d c62c 6bbb 9285 913c af47 ec3d
00000280: ebd8 cbbd 6af6 d13d 8f7b 5f3c 6c2d fc3d
00000290: 5a93 04bd 474b 623d 0f8e 253d 57af c23d
000002a0: e931 1fbd b771 f23d 6f5c 8dbd 0c25 a7bd
000002b0: d063 c0bd d7d4 6e3d 213a 6f3d e825 833d
000002c0: d254 2e3c 765a 57bc 7cca 8cbd d49e 40bd
000002d0: 97e7 9a3d 73fd 13bd e732 32bd 453e 68bc
000002e0: 213a 8ebc 052e 71bd 9ddb 68bd d718 1c3d
000002f0: bc93 4d3d 7cdd 763c 9c7f 2abd d39e 4f3d
00000300: a8da 8abd 00b1 c83b 0463 94bd 6e1a d93d
00000310: c0b9 f93b 80b6 953b ee2a 80bd ca4f adbd
00000320: 3ac4 ea3d 603f 18bd f067 493c 5834 d13c
00000330: 18ee 15bd 4295 adbd 240b 88bd 40d4 d63d
00000340: b064 5d3c 40c3 d0bb 94ec 9abd c0d3 2fbd
00000350: a8ae 85bc f0a1 703d e0a9 d3bd 1a2f a53d
00000360: 28e8 c93d 7038 0ebd dccf 33bd e831 dcbc
00000370: 420e cdbd 804f 223d f88c dbbd f0b8 5cbd
00000380: 904d 923d 8c0f e73d 100e d13c 5c6d 74bd
00000390: 004b d73b f44b 363d 6620 de3d 8898 1ebd
000003a0: a0b0 adbd 40c2 fa3b 76d5 9abd 60cc 6c3c
000003b0: de1c 88bd 6e67 f7bd 3a50 ad3d 206d 4cbd
000003c0: ccaf 88bd 7474 c0bd 940d 38bd fc89 603d
000003d0: 0c8b c13d 8478 debd b424 d9bd 4e27 e93d
000003e0: c2b4 b8bd 4ad5 cdbd acbc 7a3d f0ec 93bd
000003f0: 5eb5 8f3d 2026 38bc d069 4c3c e07a 07bd

fc1.bias f4 [32]
-0.07822396 -0.016392158 0.069970615 -0.021760806 0.1234409 0.064697236 -0.040646866 0.05336057
0.053448226 -0.04360324 0.06530405 -0.11181016 0.051308103 -0.00433807 0.068098746 0.028398864
-0.010534687 -0.052352205 -0.11414552 0.10398903 0.020538127 0.043637592 0.037552714 -0.039936528
0.06281613 0.016701078 0.10872094 -0.10273315 -0.07290767 0.04701885 0.12070478 -0.109693065
00000000: e233 a0bd d948 86bc c14c 8f3d b843 b2bc
00000010: 95ce fc3d fc7f 843d 547d 26bd 9d90 5a3d
00000020: 87ec 5a3d 5099 32bd 21be 853d bafc e4bd
00000030: 7228 523d 5e26 8ebb 5b77 8b3d bca4 e83c
00000040: ae99 2cbc 446f 56bd 20c5 e9bd 33f8 d43d
00000050: 933f a83c 55bd 323d e0d0 193d 7c94 23bd
00000060: bea5 803d b3d0 883c 16a9 de3d c265 d2bd
00000070: 9e50 95bd d696 403d 1134 f73d c2a6 e0bd

fc2.weight f4 [16, 32]
-0.029955178 0.1524023 0.16600896 0.09845559 0.16062324 -0.032154575 -0.05353324 0.03308989
-0.09539572 0.057547227 -0.16015722 0.045348912 -0.1666186 0.11218129 -0.16558261 0.14437832
-0.0005290508 0.010087937 -0.06778298 0.1424857 -0.118010394 -0.015988976 -0.04079537 -0.1469378
-0.042936638 -0.09495757 -0.14167045 -0.049658835 -0.07197723 -0.09563023 0.042869285 -0.14869262
-0.061994664 0.12767236 0.004640462 0.15674494 0.09743675 -0.04436846 -0.14006495 0.16828336
0.14731233 0.009850547 -0.058752246 -0.03059484 -0.12386245 -0.008812141 0.07351809 0.14382464
-0.11779934 0.114704594 0.15243112 -0.003820512 0.088971935 -0.15758228 -0.038361266 0.14459617
-0.1242644 -0.0068119084 0.051382132 0.013071001 0.068982214 0.04006808 0.09750532 0.11956154
-0.050367445 0.17331769 0.1695105 -0.008982226 -0.04426995 0.04987222 -0.16395131 0.09840624
0.156 -0.05853746 0.10879217 -0.14269392 -0.17441902 0.06208718 -0.13964006 0.013901934
-0.0056016147 -0.05489494 0.13414304 -0.033032194 -0.14489022 0.13705985 -0.07919418 0.0072617084
0.06418012 0.046119317 -0.0923 -0.10979336 0.057227418 -0.0061097294 -0.008779153 0.017268285
0.17102395 0.13362782 -0.124393985 -0.12780297 0.14438443 0.07547512 -0.077723466 -0.09316032
-0.103919186 0.0114851445 0.09254099 -0.17389968 0.08551131 -0.14121109 -0.13393906 0.10699402
0.102390096 0.04575008 -4.5880675e-05 -0.083816126 -0.12640108 0.10604201 0.08403624 -0.033022135
0.057465356 -0.16425772 -0.13160338 0.11764507 0.054407507 -0.051200714 -0.05443341 -0.08771638
0.08441679 -0.0637594 0.07459458 0.118000224 0.08686466 0.04948632 0.0149636865 0.1421741
-0.12519403 -0.04689935 -0.042765237 -0.106823504 0.00771078 -0.12794912 0.106461525 0.12307601
0.15130281 -0.13533112 0.09896292 -0.012817882 0.042634677 -0.122998364 0.14084876 -0.15853246
0.04636802 -0.083623834 -0.105951674 -0.071524784 -0.10104068 -0.067536995 -0.17227581 0.06591232
-0.12426391 0.12519772 -0.06586242 0.008584663 0.16011705 -0.071889825 -0.12828006 0.08037944
-0.09220309 -0.019407615 0.0850404 -0.07396496 0.1307131 -0.04358456 0.11264693 -0.048385393
0.02462773 -0.078236185 0.11975415 -0.037002195 -0.033603568 -0.11358524 -0.090130806 0.120159075
-0.029355068 0.093872055 0.01027035 0.033840954 -0.07075046 -0.08796472 0.045767024 -0.01652214
-0.14846504 -0.10879119 -0.0880254 -0.08852754 0.044949938 0.075073764 -0.07415725 0.10678114
-0.012337543 0.01762122 0.12180921 -0.026293665 -0.00016117711 0.06720073 0.1505947 -0.09675167
0.008731426 -0.08105741 -0.085898794 -0.100732066 -0.08131473 -0.06347161 -0.1412123 0.055888757
0.052102026 -0.0013028248 -0.023926882 -0.11720467 -0.13143535 0.16805804 -0.13866495 -0.055208832
0.1259652 -0.056821167 -0.17440169 -0.055577807 0.13258359 -0.024278592 0.035722196 -0.12927191
0.07607388 -0.056418464 0.10186197 -0.02069436 -0.17142347 0.04360347 0.04443578 0.11736107
0.093020074 -0.1736024 0.173519 0.022145493 0.07500355 0.0708671 -0.065083675 0.025359899
0.14774309 0.09583691 -0.12945276 0.15434061 -0.03384967 -0.07889902 0.024256427 -0.076082855
00000000: 9064 f5bc 590f 1c3e 41fe 293e 16a3 c93d
00000010: 6b7a 243e 84b4 03bd ac45 5bbd 4489 073d
00000020: d55e c3bd a4b6 6b3d 4100 24be c8bf 393d
00000030: 119e 2abe 4ebf e53d 7d8e 29be e9d7 133e
00000040: 00b0 0aba e047 253c ced1 8abd c5e7 113e
00000050: 6faf f1bd 50fb 82bc 0c19 27bd dd76 16be
00000060: 54de 2fbd 1d79 c2bd 0f12 11be 1067 4bbd
00000070: cc68 93bd c8d9 c3bd b497 2f3d e142 18be
00000080: 1eee 7dbd 8bbc 023e 040f 983b bf81 203e
00000090: eb8c c73d b4bb 35bd 306d 0fbe 7952 2c3e
000000a0: 0bd9 163e 3064 213c 32a6 70bd 08a2 fabc
000000b0: 99ab fdbd cc60 10bc a790 963d c446 133e
000000c0: c840 f1bd 3eea ea3d e716 1c3e 8e61 7abb
000000d0: eb36 b63d 405d 21be b420 1dbd 0511 143e
000000e0: 557e febd 6e36 dfbb 1276 523d c027 563c
000000f0: 8c46 8d3d 6d1e 243d dfb0 c73d aedc f43d
00000100: 184e 4ebd 317a 313e 2994 2d3e 302a 13bc
00000110: 6854 35bd d046 4c3d dae2 27be 3689 c93d
00000120: 77be 1f3e fac4 6fbd 6ece de3d 5b1e 12be
00000130: e69a 32be 204f 7e3d cefd 0ebe f0c4 633c
00000140: c08d b7bb 84d9 60bd cb5c 093e c44c 07bd
00000150: 1a5e 14be 6b59 0c3e 8f30 a2bd a0f3 ed3b
00000160: de70 833d 9ce7 3c3d c807 bdbd 57db e0bd
00000170: 4c67 6a3d 2034 c8bb 70d6 0fbc 3876 8d3c
00000180: e720 2f3e bbd5 083e 46c2 febd c8de 02be
00000190: 83d9 133e b392 9a3d 7b2d 9fbd d6ca bebd
000001a0: 95d3 d4bd 302c 3c3c 2186 bd3d c212 32be
000001b0: 8e20 af3d a499 10be 5227 09be ae1f db3d
000001c0: e6b1 d13d 7064 3b3d 0070 40b8 caa7 abbd
000001d0: 496f 01be 8e2c d93d 311b ac3d 3842 07bd
000001e0: cb60 6b3d 2d33 28be 09c3 06be e6ef f03d
000001f0: 68da 5e3d d7b7 51bd 91f5 5ebd a5a4 b3bd
00000200: b6e2 ac3d 4a94 82bd 0bc5 983d 1aaa f13d
00000210: 19e6 b13d 2bb2 4a3d 402a 753c 1696 113e
00000220: dd32 00be 8819 40bd 9a2a 2fbd 48c6 dabd
00000230: b6aa fc3b 1805 03be 8008 da3d 460f fc3d
00000240: 20ef 1a3e 3e94 0abe 12ad ca3d 1802 52bc
00000250: b3a1 2e3d 91e6 fbbd a83a 103e 5556 22be
00000260: 65ec 3d3d f942 abbd 31fd d8bd 967b 92bd
00000270: 6bee cebd d650 8abd 1269 30be 0afd 863d
00000280: 147e febd d533 003e e0e2 86bd b0a6 0c3c
00000290: b9f5 233e f93a 93bd d95b 03be fa9d a43d
000002a0: f9d4 bcbd b8fc 9ebc a929 ae3d f17a 97bd
000002b0: a8d9 053e b985 32bd 6fb3 e63d c32f 46bd
000002c0: 18c0 c93c 4b3a a0bd aa41 f53d 9d8f 17bd
000002d0: e5a3 09bd 619f e8bd 8096 b8bd f615 f63d
000002e0: 0a7a f0bc fe3f c03d f844 283c d09c 0a3d
000002f0: 9ee5 90bd d926 b4bd 3476 3b3d 7059 87bc
00000300: 3807 18be eacd debd a946 b4bd ed4d b5bd
00000310: 6d1d 383d 46c0 993d c2df 97bd 12b0 da3d
00000320: 6823 4abc 605a 903c 1b77 f93d d065 d7bc
00000330: a701 29b9 89a0 893d 7f35 1a3e bd25 c6bd
00000340: 410e 0f3c 6d01 a6bd b5eb afbd 9d4c cebd
00000350: 5688 a6bd 67fd 81bd f599 10be 9ceb 643d
00000360: ef68 553d 8cc3 aaba 4f02 c4bc 0109 f0bd
00000370: fd96 06be 6817 2c3e 2ffe 0dbe a822 62bd
00000380: 05fd 003e 50bd 68bd 5b96 32be 8ea5 63bd
00000390: fec3 073e e6e3 c6bc 7051 123d db5f 04be
000003a0: 9fcc 9b3d 0c17 67bd 029d d03d 3887 a9bc
000003b0: a289 2fbe 8d99 323d 4b02 363d 005b f03d
000003c0: 4f81 be3d d4c4 31be f7ae 313e 776a b53c
000003d0: 769b 993d c522 913d 974a 85bd 90bf cf3c
000003e0: f749 173e 2446 c43d 448f 04be 770b 1e3e
000003f0: f4a5 0abd cf95 a1bd 6ab5 c63c 54d1 9bbd

fc2.bias f4 [16]
-0.16473544 0.08021501 -0.13059458 0.01630742 0.033864494 0.049109373 0.14195623 0.15687403
0.049250882 0.17583139 -0.017091267 -0.027840983 0.10408027 0.05915214 -0.07228958 -0.07548077
00000000: 68b0 28be c447 a43d 96ba 05be 2397 853c
00000010: 7fb5 0a3d e926 493d f95c 113e 96a3 203e
00000020: 4bbb 493d 250d 343e fc02 8cbc c612 e4bc
00000030: 0928 d53d 8449 723d 8f0c 94bd a995 9abd

fc3.weight f4 [1, 16]
0.14270902 -0.003918314 0.10454553 -0.12422658 -0.16892764 -0.013272859 -0.099132404 0.09578206
0.14064257 -0.05468397 0.005412606 -0.07630055 -0.13739383 -0.046019007 -0.05515614 -0.20842618
00000000: 5022 123e 3365 80bb f81b d63d 816a febd
00000010: 5efb 2cbe 6876 59bc ee05 cbbd 6229 c43d
00000020: 9b04 103e 4cfc 5fbd 3b5c b13b 7643 9cbd
00000030: f8b0 0cbe 6d7e 3cbd 68eb 61bd ac6d 55be
