misc/nncf/neuralnet_nncf_1000.pth (torch_old, 844734 bytes, 9 tensors)

dense1.weight f4 [100, 855]
00000000: 21d0 eb3b e2e1 073d 8092 95bb d0c1 3cbb
00000010: 80c2 773a 6dd0 2b3c b5cd 623c b7c2 933c
00000020: d729 8ebc 386a 7fbc 02ca c13c 2019 b73a
00000030: 21bc 9c3c 2615 d23c 2515 04bd 3486 523c
00000040: d463 bcbb ca2f 643c 40a9 2eba 7725 83bc
00000050: bb57 093d 30a1 91bb 582b d03b 7c70 81bc
00000060: 009c f9ba 4200 3f3c 148d e6bb 3fbf db3c
00000070: 1ec1 64bc 0226 d1bc 40ae b93c 13a6 d33c
00000080: 1179 fabc c28e 003d 36c0 423c bab0 4fbc
00000090: 10af 41bb 93ff 95bc 5a07 313c 9e37 ac3c
000000a0: 2055 d1bc c9e5 c63c fb66 a73c acdd 4abc
000000b0: 56d2 9bbc fc2e bbbc 0a5e e5bc 0c65 fdbc
000000c0: 00a7 ad3a b3ce 84bc 0471 053d 2b82 093d
000000d0: c015 acba e421 213c 9acd e93c 6617 6abc
000000e0: 08d2 65bc 14d1 fc3c d804 943b ac72 d23c
000000f0: de3e c3bc 98d2 31bc 48c9 9dbb 14c9 e2bb
00000100: e60d 7cbc 2225 8abc b665 02bc b8ae a23c
00000110: 8f99 95bc a6a0 2c3c 434a d43c 8a1e 07bd
00000120: 7936 383c c0a8 98ba 12f0 0b3d 50a3 f43c
00000130: 7446 a3bc 1faf 08bd a447 b6bc 9f1b 923c
00000140: 74c9 d1bb b02e 03bb 8168 003d ba7f 0b3d
00000150: ccca e9bc 4e91 bfbc 02ee 993c 1660 d13c
00000160: f8b2 fd3c 4a5e 5f3c 8039 c13c 005e 72ba
00000170: e893 e3bc 2869 763c 2814 13bc 3083 973b
00000180: d8d2 a5bb 60a3 26bc e3ee 8dbc 5361 883c
00000190: 355f 913c 588b 9f3c 286b c73c 8ff5 8f3c
000001a0: cc4b aebb 9f22 603c 700a ae3b 8afd df3c
000001b0: 61b8 b0bc b869 053d db3e f13c 3b4b f9bc
000001c0: 196b 82bc 8edc 41bc 1897 04bc 8ff3 fc3c
000001d0: 9a75 c8bc be29 b03c 1f37 913c 3001 1abc
000001e0: 6f7d 563c cc81 0abc 181c f6bb ac16 a2bc
000001f0: 3325 203c 002f c1bb 5be3 ce3c fa2e 5e3c
00000200: 7361 d93c 7202 90bc 4c4b dc3c 46da 033d
00000210: d0c2 da3c 48d8 8dbb 06d6 a73c 3c36 16bc
00000220: 704e a8bc 1adf d9bc 2c51 38bc 9918 1a3c
00000230: 8efa 83bc e3e6 f93c 9809 a4bc 4244 013d
00000240: eaa4 dbbc 37be 533c 3f67 92bc c698 6abc
00000250: f1c6 063d e0b3 b13c 4c6c 233c a96d 343c
00000260: 67ff 90bc 243b 33bc 05f2 093d 44e5 24bc
00000270: 1d5a dabc 50d6 27bc a5d3 9d3c e4ce e9bb
00000280: 3498 d63c 202e c83b b838 e83b 874b a63c
00000290: b063 5d3c aca0 44bc 009d bab9 70a0 d33c
000002a0: a86b 09bd e0eb 76bc 80dc 273a 20b6 f6ba
000002b0: 0847 cb3b cda6 8b3c 5aaa f5bc 8914 833c
000002c0: 99f1 efbc b855 013c 3ac0 b8bc e859 073d
000002d0: e0c8 dabc 1652 963c d984 0d3c dc71 e4bc
000002e0: a01c 5fbc 59ba 87bc 3012 e83c 86f9 b5bc
000002f0: 8a35 ac3c 9a76 db3c be0f 8a3c 37f4 873c
00000300: 0062 ebbb d842 a03b d09a da3b b0d0 253b
00000310: b4d1 ebbc 4a73 473c 8953 993c 901d bfbb
00000320: c09a 70bc 9978 2b3c b5d1 b53c 860c 973c
00000330: 93ba 443c f7f0 f6bc ed78 f5bc 80bb 4cbb
00000340: 20a9 84ba e7fa 043d b891 883c 6e3e bb3c
00000350: 5575 afbc 208a ad3a 2517 bc3c 7a01 bcbc
00000360: 7b50 373c 806b d2ba e4de d5bb 4cba b9bc
00000370: b2dc 09bc 08fe 6c3c 9d59 88bc a8e5 67bc
00000380: dc7c fc3b 403e 47ba d4d1 fabc 305b 2abb
00000390: ab4f 043d 601a 0cbb 5eb3 a6bc ae69 e73c
000003a0: 9967 da3c 8c9c a7bc 647e 8e3c 4197 b3bc
000003b0: 43c2 283c 5049 28bb 7e25 0cbc 7c2f aabc
000003c0: 7c85 883c 98a6 c73b 3be5 06bd ae46 153c
000003d0: 700a 0abc 005b 533b 9dd5 913c b7d7 853c
000003e0: f0d2 f5bc 1b7a cc3c 24e3 a6bc 0c94 86bb
000003f0: 5a07 ce3c 87d4 9a3c 9ce5 b1bb 88b4 993c
0.0071964418 0.033174403 -0.0045645833 -0.0028802045 0.0009451285 0.010486704 0.01384299 0.018037183
-0.017353935 -0.015589289 0.023655895 0.001396928 0.019132676 0.02564485 -0.032246727 0.012849379
-0.005749205 0.013927409 -0.00066627935 -0.016009076 0.033530932 -0.004444264 0.006352823 -0.015800707
-0.0019043684 0.011657776 -0.007035861 0.026824592 -0.013962058 -0.025530819 0.022666097 0.025836026
-0.030575307 0.031386144 0.011886647 -0.012676412 -0.0029553808 -0.018310344 0.010804975 0.021022614
-0.025553286 0.024279492 0.020434847 -0.012381952 -0.019021194 -0.022849552 -0.027998943 -0.030931972
0.0013248622 -0.016211843 0.032578483 0.033571403 -0.0013129041 0.00983474 0.028540421 -0.014287805
-0.014027126 0.030861415 0.004517179 0.025689445 -0.023833688 -0.010853432 -0.0048152544 -0.006920943
-0.015384173 -0.01686341 -0.00795882 0.019858703 -0.018261699 0.010536348 0.025914317 -0.03298811
0.011243456 -0.0011646971 0.034164496 0.02986303 -0.019931056 -0.033370133 -0.022250958 0.017835436
-0.006402189 -0.0020016842 0.031349663 0.034057356 -0.028539084 -0.023384716 0.018790249 0.025558513
0.030969128 0.01363332 0.023586988 -0.00092455745 -0.027780488 0.01503972 -0.008976974 0.004623793
-0.005060535 -0.010170788 -0.017325824 0.01664797 0.017745594 0.019475624 0.024343088 0.017573146
-0.0053190943 0.013680129 0.005311303 0.027342577 -0.021572294 0.032571524 0.029448917 -0.03043138
-0.015920209 -0.0118323695 -0.008092664 0.030877857 -0.02447014 0.02150428 0.01772648 -0.009399697
0.013091429 -0.008453798 -0.0075106733 -0.019786201 0.009774494 -0.0058954954 0.025254896 0.013561005
0.026535725 -0.017579291 0.026891373 0.032190584 0.026704222 -0.0043287612 0.020487797 -0.009168204
-0.020545214 -0.02659564 -0.011249822 0.009405279 -0.016110685 0.030505603 -0.020024106 0.031559236
-0.026812036 0.012923769 -0.017871497 -0.014318651 0.03290457 0.021692216 0.00997455 0.011012473
-0.01769991 -0.010939393 0.033678073 -0.010064427 -0.026654297 -0.010243967 0.019265959 -0.007135259
0.026195623 0.006109014 0.0070868395 0.020299686 0.013512537 -0.012001198 -0.0003559366 0.025833338
-0.033549935 -0.015070885 0.00064034015 -0.0018822588 0.006203536 0.01704731 -0.029988457 0.016001003
-0.029290007 0.007893972 -0.022552598 0.033044726 -0.026707113 0.018349689 0.00863763 -0.027886324
-0.013617665 -0.01656835 0.028328985 -0.022213709 0.021021623 0.026789952 0.01685321 0.016595943
-0.0071833134 0.004890781 0.006671287 0.002530139 -0.028786518 0.012173483 0.01871659 -0.0058323815
-0.014685333 0.010465764 0.022194723 0.018438589 0.012007373 -0.030144198 -0.029964888 -0.0031239688
-0.0010121204 0.03246584 0.016671047 0.022856917 -0.021418253 0.0013240017 0.022960255 -0.022949923
0.011188622 -0.0016053766 -0.006526815 -0.022671841 -0.008414434 0.014464863 -0.016644293 -0.014153875
0.007705314 -0.00076005235 -0.030617632 -0.0025994293 0.03230254 -0.0021378025 -0.0203492 0.028248634
0.026660727 -0.02046039 0.017394252 -0.02192271 0.010300222 -0.0025678463 -0.008553861 -0.020774595
0.016665213 0.0060928576 -0.032933455 0.00911109 -0.00842534 0.0032250285 0.017802054 0.016338212
-0.03000781 0.024960568 -0.020371981 -0.004107004 0.02514999 0.018900169 -0.005428983 0.018762842

dense1.bias f4 [100]
00000000: 21c9 dcbb 6d9f ffbb 971c 193b 289e 47bc
00000010: 7a2b a93c 847d e1bc 7609 0a3d 49e8 eb3c
00000020: 2714 f83c 0b15 343b 3c1d 07bd 5909 44bc
00000030: 1d28 ef3c 7731 7fbc bbb6 02bc c1e4 a63c
00000040: 05d1 19bc 7c5d c6bb 778f 4bbc 1533 3abc
00000050: 80a0 8cbb ca03 aebb 3aa8 83bc 61dc 053d
00000060: 75c6 b93c 44e8 94bc 4658 efbc 55fd 00bc
00000070: 2fd3 0f3c 1238 e0bb 919c 5c3c 6440 44bc
00000080: 55bd d2bc 4822 edbc 3d07 4c3c 111a 8c3b
00000090: 6420 20bc 5b71 5c3c 0612 34bc 685a 2e3c
000000a0: 2377 fb3c b552 75bb c0c2 e03c a896 063c
000000b0: 187c 023c a1c6 ccba 6e10 7abc 9c65 8fba
000000c0: d861 9abb cd51 e1bc c58f 74bc ffa5 10bc
000000d0: 8e85 463c 6d17 f4bc 3afd f4bc b747 ad3c
000000e0: 0cdd 6c3c c001 903c cb88 54bb 9219 043d
000000f0: 5aab ddbc e758 ce3b f854 d33c 93d8 923c
00000100: aeac aabc 4180 a73c 7ceb 4b3c 9e7e 3438
00000110: d7f7 febc 0fc6 c83b 9a8e 8ebb 7143 a03c
00000120: bc76 663c 36b2 78bc 7563 1abc b060 f83c
00000130: ff51 823c 0010 06bd 3475 babc 8fc8 66bc
00000140: ccd1 b83a da71 433c 2dee ec3c 5b6a 50bb
00000150: 20b4 383c ae73 a43c e5b2 07bc 8dbf 213c
00000160: 4332 c83c 3fbf e63c 28e7 e9bc c7a5 b13c
00000170: e259 c2bc 32fd 113b e452 05bd c4e9 55bc
00000180: 7ed6 703c e9a2 e2bc 9a47 b93b 8f46 6dbc
-0.0067378436 -0.0078009875 0.0023362988 -0.0121837035 0.020650614 -0.02752567 0.03370043 0.028797286
0.030283047 0.0027478363 -0.032986864 -0.011965119 0.029193932 -0.015575758 -0.007978137 0.02037275
-0.009388213 -0.0060536247 -0.012424341 -0.011364718 -0.004291594 -0.0053105103 -0.016071428 0.032680873
0.02267764 -0.01817716 -0.029216897 -0.007872899 0.008778377 -0.0068426216 0.013465063 -0.011978243
-0.025725046 -0.02894701 0.012452898 0.0042755683 -0.0097733475 0.01345476 -0.010990625 0.010641672
0.030696457 -0.003743333 0.027436614 0.00821463 0.007964157 -0.0015623161 -0.015262706 -0.0010940316
-0.004711371 -0.027504826 -0.014926855 -0.008828639 0.012116803 -0.029796327 -0.029905904 0.02115236
0.014456999 0.01757896 -0.0032430168 0.03225095 -0.027059246 0.006297219 0.025797352 0.017925536
-0.020834293 0.020446898 0.012446281 4.3033266e-05 -0.031124039 0.006127126 -0.0043504955 0.019563409
0.014066394 -0.015179208 -0.0094231265 0.030319542 0.01590824 -0.032730103 -0.022760965 -0.014085903
0.001410061 0.011929 0.028922165 -0.0031801674 0.011273414 0.020074692 -0.008282398 0.009872329
0.02443803 0.028167365 -0.028552607 0.021685494 -0.0237245 0.002227616 -0.032549754 -0.013056222
0.014699576 -0.027665572 0.0056542875 -0.0144821545

dense2.weight f4 [100, 999]
00000000: d3a5 f93c ead1 613c c66f 013d ff15 653c
00000010: 01a9 103c 189f 8cbc c4f8 fcbb c526 8bbc
00000020: fa6c 3abc fcf0 cabc 00f2 b5b8 14c2 74bc
00000030: fc66 f03c 4dc3 f13c 2662 38bc 788f a8bc
00000040: 4cd1 a1bc fa06 90bc 3480 bb3c a829 843c
00000050: 9f1a 8a3c 5ce5 d3bc f1fc 803c 348c b5bc
00000060: cc7d 3fbc 9c7c dc3c 08ce 85bc f981 c23c
00000070: d445 c4bc 6067 eabb 568e 1bbc 7812 e43c
00000080: 306c c8bb e176 7d3c 53c6 e0bc 9fe6 f4bc
00000090: 3ed3 34bc 0053 403b e200 79bc bc32 2abc
000000a0: d771 4c3c bcfd 73bc 61a5 813c 88b6 39bc
000000b0: babb 83bc 5f84 a53c b07f ab3c 4821 c2bc
000000c0: fd4e 95bc d4c9 f6bb 2ca8 a7bb d58d c23c
000000d0: eaa8 4e3c 808a bb3c d2e5 763c 3d59 943c
000000e0: ba8d f33b 2325 dfbc 506a 2cbc 00b6 e6b9
000000f0: 947e 94bc 5c30 edbc 0061 243a dab1 02bc
00000100: 973a 91bc 55cc 533c 60fb a9bb 6875 b8bb
00000110: ea09 cebc ceea f83c a0c5 12bc af5d f63c
00000120: 8944 043c 9925 493c acb1 703c 440a dabc
00000130: 45a9 e73c c147 a53c 14ec c63c e897 91bc
00000140: e908 ecbc 9095 bcbc 1f8e 1f3c 54da cbbc
00000150: 4223 babc bc1d 293c 46de 8f3c 097f ce3c
00000160: da44 2e3c d8e0 e4bc 0ab7 bdbc a759 d7bc
00000170: 55a6 a43c 4aad 073c 380d 69bb 9c21 1bbc
00000180: e98b efbc 80e1 42ba 9cf8 12bc 39d4 dd3c
00000190: c087 67bb 1799 b73c 2a47 2dbc 06df b1bc
000001a0: 3f50 0e3c 91f5 f7bc 9a9a 7f3c 043a 9fbc
000001b0: a00f b93a bdc6 fd3c 8c66 77bc d4c6 2cbc
000001c0: 76bd 2dbc 80d0 bfb9 b02c 99bb 324a c93c
000001d0: 5329 ca3c 54a1 9f3c 6821 0bbb 7011 d3ba
000001e0: 304c fc3c a284 f9bc 6086 583b b010 393b
000001f0: 8eb5 fdbc ecc9 eebc f0e1 e6ba b572 f53c
00000200: 06b8 8bbc 408d 77bb ec5d aebc 9265 233c
00000210: 405b 62ba 0d43 d73c dfe1 a2bc 2424 b9bc
00000220: 0002 f13c 6467 c43c 3f4d 4d3c be2e 9d3c
00000230: ccd2 afbc bed2 2d3c 5c7b f4bc 170d f4bc
00000240: 5df8 febc 40c6 753a 98e3 52bb 3c32 2fbc
00000250: a624 53bc 926c e2bc 9128 f53c 138c 3c3c
00000260: 6989 e03c b839 a4bc 6b64 e6bc 7bd3 b83c
00000270: c127 193c e53b f73c ebf2 c4bc d0ab 063b
00000280: 5e1d 5abc a4ca c63c 07e0 fc3c 50a7 ab3c
00000290: 0c25 703c 08a0 8b3b 48e9 39bc b041 d7ba
000002a0: d960 e63c c19a 84bc f464 eebc 6192 543c
000002b0: d83d f33c 3607 3abc 0f81 a33c f8d8 d4bc
000002c0: de91 d13c 8a55 99bc bafe 5e3c d3cb b63c
000002d0: 0e4a a5bc 15fb 293c 60ef 883b 0e0a c6bc
000002e0: 54de e8bb e989 643c 5685 eb3c 8a72 3cbc
000002f0: cee3 0abc f0d2 b3bc 6c88 cabc 3c5d fc3c
00000300: b477 c9bc 40d7 bf3b 24df 5fbc a226 b2bc
00000310: 2a04 b8bc 28e3 9bbb 1d54 763c da46 d43c
00000320: 3435 96bb d474 3e3c e08c 67ba 47b4 ac3c
00000330: 9130 eebc a03d a03b 6b11 4d3c a771 e93c
00000340: 9c14 84bc dec1 cabc a88f bb3c d26e 7cbc
00000350: fabb e43c e835 823b 7f5e 163c 84eb 50bc
00000360: 9bf0 813c 10e3 2dbb 8e75 f03c 9ec4 a93c
00000370: 6217 d0bc d6d7 6b3c 08b8 dd3c 6634 2fbc
00000380: d785 a03c 5165 863c 0af0 03bc 1a16 f0bc
00000390: b140 b03c c09a 643b d037 35bb 7e49 893c
000003a0: a05f 4cbb 84e9 f1bc a024 4cbb 3b1f 823c
000003b0: c194 913c 00a1 2739 f0ae abbc eabc 98bc
000003c0: 9c69 18bc 1ced dbbc d58c c3bc c0d8 d7b9
000003d0: 7421 e23c 856c 9a3c e3c6 943c 23ba a5bc
000003e0: c0f8 343a f782 ab3b fe29 97bc 80b8 1e3b
000003f0: 1de0 183c 2088 8e3a 4064 6b3a ce25 b13c
0.030474579 0.013782958 0.031600736 0.013982295 0.008829356 -0.017165706 -0.007720085 -0.01698626
-0.011378521 -0.024773113 -8.6758286e-05 -0.01493885 0.029345982 0.029512072 -0.011253869 -0.020576224
-0.01975312 -0.017581452 0.02288828 0.016133144 0.016858397 -0.025866203 0.015745612 -0.02216158
-0.011687707 0.026914887 -0.016333595 0.023743616 -0.023959078 -0.0071534365 -0.009494385 0.027840838
-0.0061164126 0.0154702375 -0.027438318 -0.029895125 -0.011036692 0.0029346347 -0.015197964 -0.010388073
0.012478313 -0.014892038 0.01582593 -0.011335023 -0.016080726 0.020204721 0.02093491 -0.02369751
-0.018226141 -0.007531384 -0.005116483 0.023749271 0.012613514 0.02289319 0.015069442 0.018108958
0.0074326666 -0.027239388 -0.010523394 -0.0004400462 -0.018126763 -0.028953724 0.00062705576 -0.007976973
-0.017728133 0.0129271345 -0.005187437 -0.0056292303 -0.025151212 0.030385401 -0.00895825 0.030073969
0.008072981 0.01227703 0.014690798 -0.026616223 0.028278956 0.020175816 0.024282493 -0.01777263
-0.028812842 -0.023020536 0.009738474 -0.02488438 -0.02272189 0.010322031 0.017562043 0.02520706
0.010636533 -0.027939245 -0.023158569 -0.026287867 0.020098845 0.008281061 -0.0035560858 -0.009468462
-0.029241519 -0.0007434115 -0.008970406 0.027078735 -0.0035328716 0.022411866 -0.010576049 -0.021712791
0.008686124 -0.030268462 0.015600825 -0.019436844 0.0014119036 0.030978555 -0.015100133 -0.010545451
-0.010604253 -0.00036585703 -0.0046745166 0.024571512 0.024677908 0.019486107 -0.0021229628 -0.0016103219
0.030798048 -0.030458752 0.0033039078 0.0028238706 -0.030970361 -0.029149018 -0.0017614942 0.029961923
-0.017055523 -0.00377734 -0.02128502 0.009972947 -0.0008634813 0.02627709 -0.019883094 -0.022600241
0.029419899 0.023975082 0.012530624 0.019187327 -0.02146282 0.010609327 -0.029843979 -0.029791398
-0.031124288 0.000937555 -0.0032179113 -0.010693129 -0.012887156 -0.027639661 0.02992657 0.011508006
0.027409272 -0.020047054 -0.028124055 0.02256178 0.009347857 0.030179927 -0.024041614 0.0020549186
-0.013312666 0.024266548 0.030868543 0.020953804 0.01465727 0.0042610206 -0.0113471225 -0.0016422775
0.028122352 -0.016187074 -0.029100873 0.012974353 0.029692575 -0.011354258 0.019959 -0.025982365
0.02558225 -0.018717546 0.013610536 0.022313988 -0.020176914 0.010374804 0.0041789263 -0.024174716
-0.0071065817 0.013948896 0.028750103 -0.011501918 -0.008477164 -0.021951169 -0.024723254 0.030806176
-0.024593212 0.005854517 -0.013664041 -0.021746937 -0.022462923 -0.0047573037 0.015034703 0.02591269
-0.004583979 0.011624534 -0.00088329427 0.021082057 -0.029075893 0.004890159 0.01251636 0.028496576
-0.016123109 -0.024750646 0.02289565 -0.015407281 0.027921665 0.0039737113 0.009177803 -0.012751464
0.0158618 -0.0026533045 0.02935293 0.020723637 -0.025401775 0.014394721 0.027065292 -0.010693645
0.01959507 0.016405733 -0.008052835 -0.029307414 0.021515222 0.0034882277 -0.0027651675 0.016758677
-0.0031184927 -0.029530294 -0.003114976 0.015884032 0.017771127 0.00015986338 -0.02095744 -0.018644769
-0.009302523 -0.026846461 -0.023870865 -0.00041169487 0.027603842 0.018850574 0.018161243 -0.020230358
0.0006903522 0.005234118 -0.01845264 0.0024218857 0.0093307765 0.0010874309 0.0008979477 0.021624472

dense2.bias f4 [100]
00000000: ba4c a4bb a620 ef3c 3b21 533c e3e4 c1bc
00000010: 66e1 c03c d8b2 f03b faae e2bc 8f6f e73c
00000020: c76f bc3c cd33 fcbb def6 b53c a195 983c
00000030: d221 00bd 2f7a dabb f15d 323c 978e 01bd
00000040: 5520 fb3c f2c0 1bbc 1e92 843c cfe7 9bbc
00000050: 14a3 e93c 7857 c9bb cfed 82ba 7bc5 103b
00000060: c7f9 673c 6c93 86bc a74c f1bc b341 293b
00000070: 2cf5 c3bc 51b6 963c 2313 bc3c db73 f33b
00000080: 88fe dbbb 835b 023d b144 64bb b852 3abb
00000090: 3c80 bc3c a1e2 ba3c 67b3 80ba 8260 e63c
000000a0: fbb1 743c a562 973c ce89 9bbc 5936 d03b
000000b0: 2355 2139 2820 5bbc 23a0 79bc fbb2 283c
000000c0: 7c0d 91bc df85 8dbc e1a6 b53a 92ab 603c
000000d0: 54bf c1bb c0a1 d4bc 73ef 71bc 81db ff3c
000000e0: 53b6 db3c 1fef 28bc 04f1 fc3c d136 8c3b
000000f0: aa32 d33c b4d3 c43c 15b2 c53c 67b8 7cbc
00000100: 4119 953c ef23 c7bc cade b93c 8794 dc3b
00000110: 7f85 34bb 50f2 1e3c 37e2 1c3c 697a 8a3c
00000120: 8655 d23c 1a68 43bc 1b7c a73b 76d4 d83c
00000130: f368 05bc b73e dfbc e28c acbb 2c56 533c
00000140: 69c0 913c 47d4 343b dc9a d9bc 60cf f53c
00000150: 9fdb 393b 75b2 53bc a987 9fbb 77c0 aaba
00000160: 267d f93c e9b3 ba3c b08f d53c f242 4c39
00000170: 0583 613c 61f1 103b 452e a13c adef ab3c
00000180: 7ab3 29bb d04f a6bc f10d babc 86f8 9739
-0.0050140293 0.029190373 0.012886341 -0.023668712 0.023544978 0.0073455386 -0.027671326 0.028251437
0.023002518 -0.007696605 0.022212442 0.018626036 -0.031282254 -0.0066673975 0.010886655 -0.031630125
0.030655066 -0.009506451 0.016182955 -0.019031433 0.028520145 -0.0061444603 -0.0009989085 0.0022090364
0.014158673 -0.016427718 -0.029455496 0.0025826513 -0.023920618 0.018397482 0.022958344 0.0074295825
-0.006713692 0.031825554 -0.0034830982 -0.0028430652 0.023010366 0.022813143 -0.0009819091 0.02812219
0.014935012 0.018479655 -0.018986609 0.006354135 0.00015385872 -0.013374366 -0.0152359335 0.0102965785
-0.017706625 -0.017275749 0.0013858938 0.013712781 -0.0059127007 -0.025956035 -0.014766562 0.031232597
0.026820337 -0.010310917 0.030876644 0.0042789956 0.025780994 0.02402673 0.024132768 -0.015424824
0.018200519 -0.024309127 0.022689242 0.006731573 -0.002754539 0.0097013265 0.009575418 0.016904073
0.025675546 -0.011926675 0.00511123 0.026468497 -0.008142698 -0.027251584 -0.005265818 0.012898963
0.017791944 0.0027592347 -0.0265631 0.03000611 0.0028359664 -0.012920965 -0.004868467 -0.001302733
0.030455183 0.022790866 0.026069492 0.00019479895 0.013764148 0.002211653 0.019675383 0.02098831
-0.002589433 -0.02030173 -0.022711726 0.0002898613

fc1.weight f4 [100, 200]
00000000: 04b7 c93c 4ddb 59bd 5ce5 db3c 9aac 7b3d
00000010: 74cf 28bd 90e9 513d e05b a2bb 9606 20bd
00000020: 34f7 353d a470 17bd 18a6 68bc 8897 ee3c
00000030: 8c23 823c 8025 063b 30d3 e43c 2881 9a3c
00000040: 18e3 653c 8344 0cbd 54b2 9ebc 7932 15bd
00000050: 4411 ef3c a092 ae3b 204d 423c 0a3d d6bc
00000060: 4213 2d3d aca1 4cbd f2de 8fbd 98d4 2a3d
00000070: 306c 563d 6205 6dbd 2c67 533d c071 79bc
00000080: 9bce 88bd 9063 2e3d 6a00 7dbd 2c1b 20bd
00000090: 84ff 3dbd 90be 8f3b 345e 563d 6ba1 88bd
000000a0: 00ae 293a f846 d5bc a6c0 e0bc 9930 17bd
000000b0: 2633 0f3d 7ace 133d 1cab 473d 603c 703b
000000c0: 3814 d63c 9015 903c c035 3dbb c81a 963c
000000d0: 9fba 10bd 2753 893d ec6c 023d ae04 293d
000000e0: 321c 7abd 0641 663d 5876 463c eff2 823d
000000f0: 6811 1dbd f858 29bd dc54 42bc f06d 833b
00000100: 7cfa 5fbc ce73 633d 8006 c03c bedc 683d
00000110: 1513 813d bced ba3c 80a7 5dba 90c6 4d3d
00000120: 4a7c 4a3d 7851 483d bc13 b8bc a82d 8a3c
00000130: dcea 483d 1ee2 683d 3400 1e3d b0ad 5c3d
00000140: 00f0 a33a ae80 41bd ecd8 37bd e812 683c
00000150: de36 523d 68a3 543d 78eb 623c 8a6a 86bd
00000160: 5eae 6cbd f204 8fbd 8721 0cbd 5445 3dbd
00000170: bc49 143d 4461 2b3d 6e12 76bd 4a35 353d
00000180: c3e7 89bd a602 e0bc 7885 133d c09a 25bb
00000190: 1ed9 0e3d 96ed 5d3d a04c 283b ee06 c0bc
000001a0: a0ea 123b 7a27 7b3d 801e 373b e0c5 e83b
000001b0: e26e 90bc 4c88 ba3c 4c6c 843c e614 0abd
000001c0: d1da 823d 4a47 503d 001b c9ba a6c6 efbc
000001d0: 6caf 83bd 80ec a13c 654c 6fbd 4842 263d
000001e0: a0eb 523d bc90 023d 56cc e1bc c8d3 503c
000001f0: 008c 113d 187f fb3c 0435 c03c eade 04bd
00000200: 90b1 873b ec96 25bd a001 0ebb d315 8cbd
00000210: 4d12 8d3d 40e2 95ba 5a3a 443d 06cd 013d
00000220: 723b ebbc 3b7c 0cbd 4867 12bc 2802 3d3d
00000230: 7c43 433d d6af 2fbd 04e5 013d ef8c 65bd
00000240: c094 9a3a 4224 293d f0d5 183d 6c78 87bc
00000250: 6090 1fbb 6ceb 4f3d fac2 7c3d d22b 51bd
00000260: ccb9 a53c c471 2dbd 9038 ae3b 8c50 f13c
00000270: 38f0 5d3c f094 163d 34c2 2f3d 5842 d13c
00000280: 5359 903d 7e36 61bd 8266 adbc 4a04 423d
00000290: 10ae b03b 5e97 36bd 5de7 3bbd e048 163b
000002a0: 00f7 1d3c 3a18 7bbd 662e 203d 448c 443d
000002b0: dcec d93c 562f 60bd 4753 833d a618 793d
000002c0: 9fb2 1bbd 66c9 d5bc 6cdb 933c 808e 723b
000002d0: 409a ad3c 00f7 f239 038e 11bd fa3a 123d
000002e0: 5821 313d d268 4bbd 00d0 0038 68ff 623c
000002f0: ffc3 12bd 306d 103c 8a05 623d 4874 143d
00000300: 32d0 3bbd 7a15 83bd 44ee 1cbd c0a4 7dbb
00000310: d641 13bd b641 413d 8694 2bbd 54d4 173d
00000320: 3493 223d caf1 a2ba 54c2 893c 82cb 5b3d
00000330: 72de c4bc b964 20bd 4ad9 d23c 0489 cfbb
00000340: f1f3 293d 37b5 6abc 43ee 663c a3b4 e9bc
00000350: 6184 b03c 088f 76bd 13c5 1d3d a080 423d
00000360: 8974 60bd 6a35 823d 4325 1e3d 24c8 b13c
00000370: 248f 85bd faa6 cd3c 409b 8bbd 0956 413d
00000380: 8348 39bb 943d dfbc f086 f1bc 542f 7a3d
00000390: de16 87ba f484 4c3d 29cb fcbc a33b 3dbb
000003a0: 377c 44bd be36 503d 5754 7a3d 8745 333d
000003b0: a553 44bd 182b acb9 0a68 183d 3f70 f8bc
000003c0: 70d3 aebc eae4 19bd 5c7c 21bb f26b a63c
000003d0: f6ac 1dbc 8ad6 2e3d cebe 4f3d 258f 3f3c
000003e0: f31b c4bb 220f 7a3b 4e53 b03b ef7e d5bc
000003f0: cfcd 4bbd 27ae 5ebd 5376 84bd 5803 86bc
0.024623401 -0.053187657 0.026842766 0.061443903 -0.041213468 0.051248133 -0.0049548 -0.03906878
0.044425204 -0.036972657 -0.014199756 0.02912499 0.01588609 0.002046913 0.027932733 0.018860415
0.014031194 -0.034245025 -0.019372143 -0.036425088 0.029183038 0.0053275377 0.011859208 -0.026152153
0.042254694 -0.04995887 -0.07024945 0.04170665 0.05234927 -0.05786646 0.051612064 -0.015224874
-0.06680032 0.04257542 -0.061767973 -0.039088413 -0.046386257 0.0043867305 0.052335933 -0.06671413
0.00064727664 -0.026034817 -0.027435612 -0.03691158 0.03496089 0.036085583 0.048747167 0.003665708
0.026132688 0.017588407 -0.0028871149 0.018323317 -0.035334226 0.06705313 0.031842157 0.04126423
-0.061062045 0.056214355 0.012113176 0.06393992 -0.038346678 -0.041344613 -0.011861052 0.0040109083
-0.01367056 0.05553036 0.0234406 0.05685114 0.06302468 0.022818439 -0.00084554404 0.050238192
0.049434938 0.04890582 -0.022470348 0.016867474 0.049052104 0.056856267 0.038574412 0.05387658
0.0012507439 -0.04724186 -0.044884607 0.014164664 0.051321857 0.05191365 0.013850085 -0.065632895
-0.057783477 -0.06983365 -0.03421166 -0.046208695 0.03620313 0.041840807 -0.06007617 0.044240274
-0.06733658 -0.027345013 0.036015958 -0.002526924 0.034875028 0.054181658 0.0025680438 -0.023440804
0.002241768 0.061316945 0.0027941763 0.0071036667 -0.017630998 0.02277007 0.016164921 -0.033711337
0.06389392 0.050849237 -0.001534313 -0.029269528 -0.064299434 0.019766092 -0.058422465 0.040590554
0.05149424 0.03187631 -0.027563255 0.012745805 0.035533905 0.030700251 0.02346278 -0.03243915
0.00414104 -0.040427133 -0.002166845 -0.068401 0.06888256 -0.0011435226 0.04790721 0.031689666
-0.02871487 -0.034298163 -0.008935757 0.046144634 0.04767178 -0.0428923 0.031712547 -0.056042608
0.0011793599 0.041294344 0.0373134 -0.016536914 -0.0024347529 0.050761625 0.06170938 -0.05106718
0.020230196 -0.042344823 0.0053168014 0.029457353 0.013546042 0.03676313 0.042909816 0.02554433
0.07048287 -0.05498361 -0.021167044 0.04736737 0.0053918436 -0.04457795 -0.045874942 0.002293162
0.009641409 -0.0613024 0.03910675 0.04798533 0.026602201 -0.054732643 0.06412368 0.060814522
-0.038012143 -0.02609701 0.018048964 0.0037011206 0.021191716 0.00046341866 -0.035535824 0.035700776
0.04324469 -0.04966051 3.0711293e-05 0.013854839 -0.035831448 0.008815095 0.055181064 0.036243707
-0.045852847 -0.06400581 -0.038313165 -0.0038702935 -0.035951458 0.047181807 -0.04188969 0.037067726
0.039691165 -0.0012431678 0.016816296 0.053660877 -0.024031851 -0.039158557 0.025738377 -0.006333472
0.041492406 -0.014325432 0.014094892 -0.028528517 0.021547498 -0.060195 0.038518023 0.047485948
-0.054798637 0.06357844 0.038609754 0.02170188 -0.065214425 0.025104035 -0.06816721 0.04720119
-0.002827198 -0.027251042 -0.029483289 0.061080292 -0.0010306498 0.04993148 -0.030858593 -0.0028874658
-0.047970023 0.050833456 0.06111559 0.04376748 -0.047931332 -0.00032838504 0.037208594 -0.03032696
-0.021341056 -0.037571825 -0.0024640774 0.020315144 -0.009623757 0.04268507 0.050719075 0.011691843
-0.005984777 0.0038155993 0.0053810244 -0.026061503 -0.04975682 -0.054365303 -0.06467881 -0.016359016

fc1.bias f4 [100]
00000000: f91b 5bbd 383e 2a3d 9349 04bd 3c08 debc
00000010: f2a2 86bd a9de 14bd 6ae2 743d 75a6 82bb
00000020: ee5f 333d d18d 83bd 4a35 71bd 9a2d 22bd
00000030: bf50 29bd 78e4 323c 47a4 823d eaab 803d
00000040: 794e 61bd b89b 893d db5d 33bd 48b6 b7bc
00000050: ac7d 00bd a9d3 4e3d 42cd 423d 4109 23bd
00000060: d54d 2a3d fe7c a83b b0de 13bc 01f3 24bd
00000070: c617 50bd 4fc5 153d ac31 183d 00d2 3c39
00000080: 52d7 fd3c 8479 4bbd 51c7 d2bc b0e9 5bbd
00000090: 6f38 f33c 281c 553d 621c 583d cbd9 883d
000000a0: 9ac3 753d 9479 d9bc 568f 04bd a7f9 4a3d
000000b0: 570f 8b3d ece9 34bd 5cfb 3a3b 5f4b 56bc
000000c0: 711c 923c db90 123d ee98 6ebc 193c 0dbc
000000d0: db86 f43c 3fd6 273d 4646 1e3c a519 0f3d
000000e0: 0ae8 38bd e3a5 99bc a207 7ebd d61f 78bd
000000f0: a7b8 8f3c 1aaa 89bc d4ee 31bd c863 9cbc
00000100: a38f 073d ecf1 53bd 026b 8bbd 0b36 893d
00000110: afcc 5a3d 3110 e63b fa07 003d 02d8 7b3d
00000120: d6f0 52bb 1900 073c d07e a43c 08d3 d5bc
00000130: 3eee 693c d3a4 623d e182 463d 608c 373d
00000140: f920 153d 6dfc de3c 4929 933c 0070 d83b
00000150: 6004 c3bc 2fb7 8b3d 1a6b 21bd 5702 69bc
00000160: 726a 04bc f83d 873d abaa dabc 8b3d 35bb
00000170: 585d b3bc 7fa9 83bd d003 6bbd f0a4 dcbb
00000180: 376e 8c3b 0807 8e3c 9abf 2bbd cd2d 66bd
-0.053493474 0.041563243 -0.03229673 -0.027103536 -0.06574048 -0.036345158 0.059786238 -0.0039871284
0.043792658 -0.06423534 -0.05888871 -0.03959427 -0.04133677 0.010918729 0.0637899 0.0628279
-0.055006478 0.06719154 -0.04379068 -0.022425786 -0.03136985 0.050494824 0.04755903 -0.039803747
0.041578133 0.0051418534 -0.009025261 -0.04027081 -0.050803922 0.03656512 0.037156746 0.00018007308
0.030986462 -0.049676433 -0.025729807 -0.05368966 0.029689996 0.052028805 0.052761443 0.06682166
0.060000993 -0.02654723 -0.03236326 0.049554493 0.06790035 -0.044168398 0.002853117 -0.013079493
0.017835828 0.035782676 -0.0145628285 -0.008620285 0.02984946 0.040975805 0.009660309 0.034936566
-0.045143165 -0.018755859 -0.062018998 -0.060577236 0.017544104 -0.016804744 -0.043440655 -0.019090548
0.033095967 -0.051744387 -0.068075195 0.06699761 0.053417858 0.007020973 0.031257607 0.061485298
-0.0032187006 0.008239769 0.02008 -0.026101604 0.014277993 0.05533297 0.04846466 0.044811606
0.0364084 0.027219975 0.017964022 0.0066051483 -0.023805797 0.06822049 -0.03940878 -0.014221749
-0.008082019 0.066036165 -0.026692709 -0.002765509 -0.021895096 -0.06428813 -0.057376683 -0.0067335293
0.0042855996 0.017337337 -0.041930772 -0.056196023

fc2.weight f4 [50, 100]
00000000: d2d5 733d 8634 4abd 6a63 72bd d096 a63b
00000010: ab35 a0bd 89a5 8f3d f869 c9bc da4e 053c
00000020: 3f74 c5bc 4147 9a3d e043 a03c b0b9 0dbc
00000030: 742f cc3c 7e6b 95bd 984f 763d b8db 3c3d
00000040: 7294 3d3d 2ab2 113d 2ed5 043d f0b0 afbb
00000050: 9064 c23d 8dc9 233c 5a43 c73d e704 4ebd
00000060: 7e4b afbd 6a68 8e3d b8ee 453d 2e67 1e3d
00000070: f352 cc3d 1517 45bd ddde 763d adb2 17bd
00000080: ad6c c2bd 703c 4cbd 8021 c7bd ef77 c2bd
00000090: 4f0a 8e3d eebd 5fbd 78d0 a43d 5ab1 bebd
000000a0: d121 9dbd 816e bc3d 70ee 48bc ee6e 31bd
000000b0: 31fc afbd a0ed 073b 6d8f 9abd e4fa 0b3d
000000c0: d19a 823d 9fd8 933d ef15 b5bc 430e 943d
000000d0: cc06 b7bd f635 aebb 3f0d a3bd b4f9 763d
000000e0: 7d10 c0bd 7d1e 84bd 9377 67bd 80bf ff3a
000000f0: fb01 c73c 840e 45bb e0b3 bfbc 2cb5 95bd
00000100: 16a6 ac3d d879 abbd 3365 843d 1a98 d2bc
00000110: 31fb 73bd 2e3c ebbc 2552 5ebd aec4 11bb
00000120: 55fc a4bd 8d03 37bb dbc2 923d 4d05 953d
00000130: 5ad3 c33d 7bcc 49ba 1eb0 553d 5d15 5abd
00000140: f590 bebd 16b9 5ebd 2273 2abd 6535 853d
00000150: 70eb 4dbc 16d6 52bc b75d bf3d 3668 aebd
00000160: 4e31 c23d 5e9c 62bb 12b8 82bd 92a5 fe3c
00000170: 8246 563d 4216 5d3d 4d3a 90bd 30ad 21bc
00000180: 282b b93d 35dd 05bd 7e80 783d 6f6a 883d
00000190: fd59 923d 7b60 a73a 9523 a23d 45a5 a83d
000001a0: ad1c 20bd 3897 95bc b84a 7b3d c07c 87bd
000001b0: 2e49 78bd 58f8 7fbc 18a9 74bc c349 933d
000001c0: 8caf 84bc 9400 84bc 16e3 9b3d 6849 d9bc
000001d0: 0035 213c 7653 8fbc 4082 10bb 2538 8fbd
000001e0: a169 b53d fa72 a83d 4457 84bd 2260 393d
000001f0: 247b 74bd 1524 a13d ff98 a3bd 7c58 0dbd
00000200: bfea b33d ab3e 45bd e771 3c3d 1011 47bd
00000210: 0679 c2bb d08e 4ebc 7562 aebd 62fc 783d
00000220: 75e5 e9bb c4c6 0f3c a5fd c9bd 97f5 8f3d
00000230: bb00 b53b f434 b53c 58f3 c13c 3bb4 28bd
00000240: 30a2 8a3b 4367 9b3d b2c8 00bc 21c6 e13c
00000250: 7020 cb3d 13c3 e1bc d0ac 5abb e961 c13d
00000260: cd15 623d bf3f f33c dbee 99bc 3669 833d
00000270: d8b1 c1bc 0fe7 f4bc 1690 683d 6f1c 903d
00000280: 7551 b83d 458d 813c b79f c9bd 5171 243c
00000290: a842 ccbd ec8e 06bd 204f e9bc 4bf6 0ebd
000002a0: 3e8d f2bc f9de 643c 1326 b5bd be07 213d
000002b0: f9a9 8c3d 9536 233c 1118 7f3d 6257 633d
000002c0: 5d40 a23d 6ed2 4d3d eb90 553d d3ee e83b
000002d0: 2c9d 8ebd 0b51 cc3d 1d1e 9a3d 6448 c8bd
000002e0: 687f 493c 4b2a 583d ff6a c0bd 8a64 323d
000002f0: e8ba a4bd 00ff a53d 21e2 dbbc 0bfd 453d
00000300: a281 793d c7f4 babd e3cf 4bbd 8ab5 6dbd
00000310: 3f51 983d e182 71bd 7328 33bd ca4d 0a3d
00000320: 4c45 9b3c f23a 94bd 4d36 4abd 0111 cb3d
00000330: aab2 7ebd 45c7 89bd 729a 113d d0b0 3d3c
00000340: a0bc 753b 33f0 6dbd a033 df3b b3ed a43d
00000350: eb35 c4bd c3ae 43bd 0064 76bd dbf7 8e3d
00000360: c3d8 59bd 900c 633c 28e7 9bbc 5dfb 20bd
00000370: 73b5 b83d 889e b0bd 12ab 2d3d 5df6 813d
00000380: 85d7 aabd 80eb c1bc cbc5 b53d 36c1 323d
00000390: e74b 9d3d aabc 42bd 5bf7 a2bd b472 83bc
000003a0: a2e8 b6bd 328a 313d 28e4 a93c d082 2cbc
000003b0: aede 98bd 4093 11bc 0a77 223d b2d5 293d
000003c0: 8d40 3dbd a791 9d3d d72e b63d d1f0 c33d
000003d0: 2a98 083d c890 bcbd b2b7 4f3d 6a4a b3bd
000003e0: cd3e 23bd fd1f 903d 6060 eabc f2c9 9bbd
000003f0: f279 86bd fe4e 743d df98 c7bd 89ed 9e3d
0.059530087 -0.049366497 -0.05917684 0.005083896 -0.07822736 0.07013995 -0.024586663 0.008136475
-0.024103282 0.07533122 0.019563615 -0.008650228 0.024924971 -0.07295893 0.0601345 0.046107978
0.046284147 0.0355703 0.032429866 -0.0053616688 0.09491837 0.009996784 0.09729643 -0.050297644
-0.08559321 0.06953509 0.048323363 0.03867262 0.09976759 -0.048117716 0.060271133 -0.037035633
-0.094933845 -0.049862325 -0.097231865 -0.09495532 0.0693556 -0.05462449 0.08047575 -0.09311171
-0.076724656 0.092007644 -0.012263879 -0.04331868 -0.085930236 0.0020741 -0.075468875 0.034174815
0.06377185 0.072190516 -0.022105185 0.07229283 -0.08936843 -0.0053164912 -0.07961511 0.06029673
-0.09378145 -0.06451128 -0.05651052 0.0019512028 0.024292937 -0.0030068466 -0.0234012 -0.073099464
0.08430116 -0.08372849 0.06464615 -0.025707293 -0.059565727 -0.02871522 -0.054277558 -0.0022242474
-0.08055941 -0.00279257 0.07166072 0.07276402 0.095617965 -0.00076980115 0.05216991 -0.05324303
-0.09304992 -0.05437573 -0.041613705 0.06504325 -0.01256834 -0.012868425 0.093440466 -0.085159704
0.094820604 -0.0034578065 -0.06382765 0.03108481 0.052313335 0.053976305 -0.0704237 -0.009867951
0.090414345 -0.032681663 0.060669415 0.066609256 0.0714607 0.0012769842 0.07916943 0.08234648
-0.039089847 -0.018260583 0.061350554 -0.06615591 -0.060616665 -0.015623175 -0.014932893 0.07191803
-0.016196989 -0.016113557 0.076116726 -0.02652426 0.009839296 -0.017495852 -0.0022050291 -0.069931306
0.08858038 0.08225055 -0.06461957 0.045257695 -0.05968775 0.0786821 -0.07988166 -0.034508213
0.08785009 -0.048155468 0.046007063 -0.048600256 -0.0059348373 -0.012607291 -0.08514873 0.060787566
-0.007137949 0.008775417 -0.09862832 0.070292644 0.0055237687 0.022119977 0.023675606 -0.041187506
0.00423076 0.07588055 -0.0078603495 0.027560296 0.09918296 -0.027558839 -0.0033367164 0.09442503
0.055196572 0.029693482 -0.018790653 0.06416552 -0.023644373 -0.029895334 0.056778036 0.07036673
0.08999912 0.015814433 -0.09844916 0.010036782 -0.09973651 -0.032851145 -0.028480113 -0.034902852
-0.029608365 0.013969176 -0.08845153 0.039314024 0.06868357 0.009961744 0.06227881 0.055503257
0.079224326 0.05024951 0.052140158 0.007108548 -0.06963572 0.09976395 0.07525275 -0.097794324
0.012298442 0.05277471 -0.09395408 0.043552913 -0.08043462 0.08105278 -0.026841225 0.048337024
0.060914643 -0.09128719 -0.049758803 -0.058034457 0.074373715 -0.058962706 -0.043739747 0.03376559
0.018953942 -0.072378054 -0.04936819 0.099153526 -0.062182106 -0.06727461 0.03554768 0.0115778
0.0037496462 -0.0580904 0.006811574 0.0805315 -0.095805965 -0.047774088 -0.06015396 0.069808684
-0.053185236 0.013857976 -0.019031122 -0.03930222 0.09018984 -0.086239874 0.042399473 0.06345818
-0.08341888 -0.023671865 0.08875617 0.04364129 0.07680493 -0.047543205 -0.079573356 -0.016045906
-0.0893109 0.043344684 0.020738676 -0.010529235 -0.07464348 -0.008885205 0.039664306 0.04146356
-0.04620414 0.076937966 0.08895653 0.095674165 0.03334824 -0.09207302 0.050712295 -0.08754428
-0.039854813 0.07037351 -0.028610408 -0.076068774 -0.06566228 0.059645645 -0.09745955 0.0776015

fc2.bias f4 [50]
00000000: 905a 3f3d e347 a53c 9796 64bd 41cd e93a
00000010: ed81 cbbd 51fe b33d 4adc 843c 188c 953c
00000020: ea3b 37bd f2e3 60bc 10ef b1bd 567d a23c
00000030: e6c2 a23d 00ae c9bb 90ec 76bd fd44 5dbd
00000040: 81a9 703d 2268 483d 663f 97bd a244 3d3d
00000050: 9065 7f3d 5eac 33bc 50e5 8cbd 4abc a93d
00000060: 322e 263d 5b11 b3bd 505a 423c fc7c 11bd
00000070: 6c97 a0bc 6075 9abc 36a5 af3d f6e6 08bd
00000080: 3b6b 183d 3442 393d 369e 563d 4ef6 a63b
00000090: e3c3 663d 6c58 d0bc 4adc 6dbd 50a2 51bd
000000a0: 3053 83bd d376 b9bd 2036 adbc 1055 b93d
000000b0: d4a5 c6bc f9fb 053d 1d7b 47bd 02fb 88bd
000000c0: d83b acbc 0ca0 81bc
0.046717227 0.02017588 -0.055807676 0.001783766 -0.09936891 0.087887414 0.016218323 0.018255278
-0.044734873 -0.013726221 -0.08688176 0.019835155 0.0794733 -0.0061547756 -0.060284197 -0.05402087
0.0587554 0.048927434 -0.07385139 0.04620803 0.062352717 -0.0109663885 -0.068796754 0.082878664
0.0405714 -0.08743545 0.0118623525 -0.035519585 -0.019603454 -0.018854797 0.08576433 -0.033423387
0.037211638 0.04522915 0.052396975 0.00509528 0.056339156 -0.025432788 -0.058071412 -0.051180184
-0.06412351 -0.09055867 -0.021143973 0.090494275 -0.024248995 0.032711003 -0.048701394 -0.06688501
-0.02102463 -0.015823387

fc3.weight f4 [1, 50]
00000000: 2988 ecbd f2d6 0f3d c00a d8bd 50e9 f53d
00000010: 1e0d e5bd f50b 14bd 4d99 0dbd fad9 2fbd
00000020: f8ff 8d3d f256 f73d ae29 fd3d 2be9 903d
00000030: 8ad2 3abd 0034 e1ba 5931 05be a4d8 02bd
00000040: 7c8b 543d 6875 643d ec5b 34bd 05c7 6a3d
00000050: 535c dbbc c37e ef3d 7094 fa3c d90a 95bb
00000060: af8f 273c aeab 973d 148e 8e3d c81b 90bc
00000070: 9955 e2bd 7ad8 8f3d 7488 793d a6fb 31bd
00000080: 4651 ef3d e8a6 793c a7c0 8d3d 782b ca3d
00000090: 303f fc3d e4e9 753d c8aa 8abc 7efd f4bd
000000a0: 5dcc 0a3e 52eb e13d 96c2 38bd 2d2a 12be
000000b0: 0deb 983d 4188 843d 9e9e 7fbd 30fb 573d
000000c0: c466 3ebd 7d02 10be
-0.11549408 0.035117097 -0.105489254 0.120073915 -0.111841425 -0.036144216 -0.034570027 -0.042932488
0.06933588 0.120771304 0.123614654 0.07075723 -0.045610942 -0.0017181635 -0.13007106 -0.031944886
0.051890835 0.05577603 -0.044032976 0.057318706 -0.026777422 0.116941 0.030588359 -0.0045484123
0.010227128 0.07405792 0.06960693 -0.017591372 -0.11051483 0.070237115 0.060921147 -0.04345288
0.116854236 0.015237547 0.06921511 0.09871572 0.123167396 0.06003751 -0.016927138 -0.11962412
0.13554521 0.11031212 -0.045107447 -0.14273901 0.074667074 0.06471301 -0.06240713 0.052729785
-0.046484724 -0.14063449
